…
model.add(MaxPooling2D(pool_size=(2, 2)))

model.add(Convolution2D(32, (3, 3), activation='relu'))
model.add(MaxPooling2D(pool_size=(2, 2)))

model.add(Convolution2D(64, (3, 3), activation='relu'))
model.add(MaxPooling2D(pool_size=(2, 2)))

model.add(Flatten())

model.add(Dense(units=64, activation='relu'))
model.add(Dense(units=5, activation='softmax'))
model.summary()
Model: "sequential"
_________________________________________________________________
 Layer (type)                Output Shape              Param #   
=================================================================
 conv2d (Conv2D)             (None, 62, 62, 32)        896       
                                                                 
 max_pooling2d (MaxPooling2D  (None, 31, 31, 32)       0         
 )                                                               
                                                                 
 conv2d_1 (Conv2D)           (None, 29, 29, 32)        9248      
                                                                 
 max_pooling2d_1 (MaxPooling  (None, 14, 14, 32)       0         
 2D)                                                             
                                                                 
 conv2d_2 (Conv2D)           (None, 12, 12, 64)        18496     
                                                                 
 max_pooling2d_2 (MaxPooling  (None, 6, 6, 64)         0         
 2D)                                                             
                                                                 
 flatten (Flatten)           (None, 2304)              0         
                                                                 
 dense (Dense)               (None, 64)                147520    
                                                                 
 dense_1 (Dense)             (None, 5)                 325       
                                                                 
=================================================================
Total params: 176,485
Trainable params: 176,485
Non-trainable params: 0
_________________________________________________________________
model.compile(optimizer='adam', loss='categorical_crossentropy', metrics=['accuracy'])
model.fit(X_train, steps_per_epoch=100, epochs=20)
…
